bnn_mnist_cnn_model.pt (torch, 741899 bytes, 8 tensors)

conv1.weight f4 [32, 1, 5, 5]
000000 71 f6 79 3d d7 82 a9 3d e8 ad 30 3d 96 93 37 3e
       0.06102604 0.08276909 0.0431346 0.17927393
000010 a3 ab 3e be 97 09 a4 bb e8 d1 67 bb 5a f9 f7 3d
       -0.18620162 -0.005006026 -0.0035372917 0.12108107
000020 96 2c 51 3e 92 ae 1a be 8a e7 1d 3e 4f 7a 0a be
       0.20427164 -0.15105656 0.15420356 -0.1352322
000030 fd 4f 06 bc f0 7b 88 3e cf b2 c6 bd 0a d6 2d be
       -0.008197782 0.26657057 -0.09702074 -0.1697618
000040 37 4c 42 3e 7e fb 85 ba 73 54 82 3e fb 41 57 3e
       0.18974386 -0.0010222045 0.25455055 0.21021263
000050 24 dd b1 3d 50 19 35 3d 3e d3 3f 3e 8a f0 cf bb
       0.08684757 0.044213593 0.18732926 -0.006345813
000060 54 63 c5 bd ce c6 4d be 93 55 1d bd db 64 35 3e
       -0.09638086 -0.20095369 -0.038411688 0.17714255
000070 83 a6 23 3d 82 c8 ed 3d 32 37 07 3e 02 8a 34 be
       0.03995372 0.116105095 0.13204649 -0.17630771
000080 c4 12 d1 3d 8a d1 ab 3d d0 fb 17 bc 04 09 68 bd
       0.102086574 0.08389576 -0.009276345 -0.056649223
000090 3f 76 f5 bd d7 3f 10 3e 54 b4 49 3e 67 bc ef bd
       -0.11985444 0.14086853 0.19697696 -0.11705857
0000a0 de e8 63 be 1b 62 ef bd 73 d3 db 3d 14 8a 78 3e
       -0.222568 -0.11688634 0.1073369 0.24271423
0000b0 a5 eb d9 bc 30 f1 c6 bd 4d 91 fd 3d d5 ca f5 3d
       -0.026601622 -0.097139716 0.123812295 0.12001578
0000c0 18 b7 17 3e d9 e2 3a be dd f6 a5 3d 9f 9f 70 3d
       0.14815938 -0.18250598 0.08103726 0.058745977
0000d0 2c 61 ba bd 08 fe 10 be 3f 89 05 3e fb e8 07 3e
       -0.09100565 -0.14159405 0.13040636 0.13272469
0000e0 62 f7 81 3e fd 5f 9b bd 69 7b 62 3e d0 13 35 3e
       0.2538405 -0.07586668 0.2211739 0.17683339
0000f0 78 cd a5 3d 22 d7 84 3e ad 88 97 3d d4 a9 f1 bd
       0.08095831 0.25945383 0.07399116 -0.1179997
000100 a6 28 56 3e 8b 4f 50 3c 25 48 18 3e 6c e6 3a bd
       0.20913944 0.012714277 0.14871271 -0.045629904
000110 98 6e 0a be 74 6a e2 bd 56 45 63 bd a9 4a f0 bd
       -0.1351875 -0.110554606 -0.055486046 -0.1173299
000120 01 c2 8b 3c ec 85 41 be 0e 62 2c be 06 af 24 be
       0.017060282 -0.18898743 -0.1683428 -0.16082391
000130 c7 a3 2b 3e a8 2e 05 3d df 12 2a 3e 86 6c c8 3c
       0.16761695 0.032515198 0.16608761 0.02446581
000140 f3 b1 3f be a8 60 50 bd 04 e3 42 3d 8d b4 7f 3d
       -0.18720226 -0.05087343 0.04757978 0.062428046
000150 87 1e 43 3e bc 71 95 bd 2c 68 81 bc 85 21 32 be
       0.19054614 -0.07297084 -0.015796743 -0.17395599
000160 32 66 f5 3d c2 19 51 3e 8c c5 c6 3d 56 94 33 be
       0.11982383 0.20419982 0.09705648 -0.17537054
000170 af e7 13 3e f1 74 b1 bd d1 3b 5e 3e e5 bd 3d be
       0.14443849 -0.08664883 0.21702506 -0.1852947
000180 28 bf fa bd 4d 3c 5e 3e 51 91 63 3e e9 93 7e bd
       -0.122434914 0.2170269 0.22223403 -0.062152777
000190 f4 7d 81 3c 81 07 83 3e ed 98 3e bd 37 c6 93 bd
       0.01580713 0.25591663 -0.04653256 -0.07215541
0001a0 bd 88 80 bd 1a 06 82 3e 7a 66 15 3e 4b a8 97 3c
       -0.06276081 0.2539528 0.14589873 0.018512866
0001b0 22 a6 e1 bd 87 52 3e 3e ca a3 74 bc 53 2b aa 3d
       -0.110180154 0.18586169 -0.0149316285 0.08309045
0001c0 fc e3 34 3e 81 35 b6 bd 24 29 b1 bd c2 69 10 be
       0.17665094 -0.08896924 -0.08650425 -0.14102843
0001d0 22 5c c3 3b 94 03 66 3e 6f be ba 3c 27 4c 8d bd
       0.005961911 0.22462302 0.022795884 -0.068992905
0001e0 eb 03 40 bd 3a 19 ce bd 6a 85 b4 3d 73 e8 c0 3c
       -0.046878736 -0.10063405 0.08814509 0.02354834
0001f0 85 17 33 be e4 5a 69 3e 8a ec 99 3d ce b8 a5 3b
       -0.1748944 0.22788578 0.07515819 0.005057431
000200 64 a5 12 bd 5c 32 20 3d 9b 80 49 3e 09 a9 00 3e
       -0.03580226 0.039110526 0.19677965 0.12564482
000210 af 0f b1 3c 97 63 08 bc 67 d7 d1 3d 96 65 0c 3e
       0.021613924 -0.008324525 0.10246163 0.13710627
000220 b6 b7 8d bd 0f 7d b9 bd 25 79 e7 bd f1 b7 94 bd
       -0.06919806 -0.09057056 -0.11302403 -0.072616465
000230 4e 5f 6a 3e cd d4 8f bb b6 22 8f bd f7 bf 2f 3e
       0.22887918 -0.0043893815 -0.069890425 0.17163073
000240 5e 22 06 3e 2c 4c 23 3e 92 2d 14 be 97 e6 d8 3d
       0.13099048 0.15947026 -0.14470509 0.105908565
000250 f8 91 54 be ec a5 15 3e 7f 88 27 3e dc 45 14 3c
       -0.20758808 0.14614075 0.16360663 0.009049859
000260 be e2 9a 3d e2 8f 37 be ac 5f 3c 3d 3c 4c e3 3d
       0.07562779 -0.1792598 0.045989677 0.11098525
000270 47 13 52 bd 59 64 3d bd 62 fb 60 be 3b 32 de 3b
       -0.051287916 -0.046238277 -0.21970895 0.0067808903
000280 29 24 61 3e e2 05 c1 3d 1c ed b7 bd 7f 18 b3 bd
       0.2198645 0.0942495 -0.08980772 -0.08744907
000290 4a 73 60 be 2f 0c 48 3d f6 2b a4 3d 95 78 33 3e
       -0.2191898 0.048839744 0.080161974 0.17526467
0002a0 d0 cf 4a be 0d 9d aa bb 19 0a fe 3d eb 14 0a 3e
       -0.19805837 -0.00520671 0.1240427 0.13484542
0002b0 be 70 bf 3d 47 6f ff bd 17 d0 3c be fb d3 18 be
       0.09347676 -0.12472396 -0.18438755 -0.14924614
0002c0 57 c0 f3 bd 77 d5 f0 3d 57 2d 90 3d f6 a9 03 be
       -0.1190192 0.11759465 0.07039898 -0.12857804
0002d0 4d d6 70 be c9 e2 59 be 5b 63 43 b9 07 f1 28 3e
       -0.2351925 -0.21277918 -0.00018633662 0.16498195
0002e0 2e 3e 99 3d 38 bc 1d be 34 24 b9 bc 06 47 c5 bc
       0.07482563 -0.15403831 -0.02260027 -0.024081718
0002f0 3c 2c 1c be 33 66 69 3c 32 c5 5f bb 96 87 33 3e
       -0.15251249 0.014245558 -0.0034144637 0.1753219
000300 7c 14 98 b9 e5 2b c2 bb 65 7e 31 3e 2a 30 81 3d
       -0.0002900696 -0.005925643 0.17333372 0.06308015
000310 73 bc 8a 3e 7a 25 f3 3d 60 f1 eb 3d ba 7e 38 3d
       0.270969 0.118723825 0.11520648 0.04504273
000320 cf a7 4f 3e f8 8f a8 3d 67 8c 8d 3e fb 86 4e 3e
       0.20278858 0.08230585 0.2764618 0.20168678
000330 75 15 36 bc 4b 79 6c 3e 99 9b 0f be a1 da c2 bd
       -0.011113514 0.23093145 -0.140242 -0.095143564
000340 26 51 c2 bd ed 47 02 bd 26 1a e6 3d 80 43 84 bd
       -0.09488134 -0.031806875 0.11235456 -0.06458187
000350 29 94 27 be 5a e8 96 3c 40 89 1e 3e 52 1c 64 bd
       -0.16365112 0.01842134 0.15482044 -0.05569107
000360 17 0b 1f be d7 c9 36 be 33 6a 47 be fe 5d 4d 3d
       -0.15531574 -0.17850433 -0.19474106 0.050138466
000370 0a b1 ad 3d 82 c2 4a be bd 4b ab ba 24 2c 7f be
       0.08481033 -0.19800761 -0.0013068836 -0.24919182
000380 23 15 6b be 91 d1 0e be cd a4 29 3e 17 31 d0 bb
       -0.22957282 -0.1394713 0.16566773 -0.006353508
000390 c6 e7 34 3e 9f f8 12 3e 72 f3 55 3e 08 cb 52 3e
       0.1766654 0.14352654 0.20893648 0.20585263
0003a0 98 46 75 bc ef be cd 3d 8c b0 49 bd 46 3f d6 3d
       -0.014970444 0.10046183 -0.049240634 0.10461287
0003b0 c1 ed d8 3c 4b ad 35 3e 89 ea 75 3e 11 3a 63 3e
       0.026480557 0.17741887 0.2401525 0.2219012
0003c0 33 12 6b be be 75 28 be 85 99 8b bd 74 85 40 3e
       -0.22956161 -0.16451165 -0.06816391 0.18800908
0003d0 14 7c 00 be 87 bc 33 be 88 a6 1b bd 13 c4 d0 bc
       -0.12547332 -0.17552386 -0.038000613 -0.02548412
0003e0 4e 60 4e be 9c 95 b6 bd 0a 36 4c 3e e5 c2 24 3e
       -0.20153925 -0.089152545 0.1994249 0.16089971
0003f0 e7 aa 7f 3e 18 3d ad bd 01 df 15 be fe 96 66 bd
       0.24967538 -0.08458918 -0.1463585 -0.05629634

conv1.bias f4 [32]
000000 9f 85 2a 3c da c2 d4 bd 4b 45 02 3e 52 e8 92 bd
       0.010407834 -0.103887275 0.12721746 -0.07173218
000010 3e bf 42 bd 93 f0 cf 3d fa ef a9 3c d0 89 a0 bc
       -0.047545664 0.10153308 0.020744313 -0.019596964
000020 9c 7e 82 bc 28 14 fa 3d 1b 38 b2 bd 9a 79 4c bd
       -0.015929513 0.12210876 -0.087021075 -0.049920656
000030 05 6f 02 3e 92 92 18 3e 9f 89 26 be ae 62 58 3e
       0.12737663 0.14899662 -0.16263436 0.21131393
000040 f1 b0 60 3e 69 66 6a 3d da 88 e9 3d a3 14 3f 3c
       0.21942498 0.057226572 0.114030555 0.011662635
000050 68 3f 21 3d fc c0 87 3b 68 3c e9 3d a2 70 50 3d
       0.03936711 0.0041428786 0.11388475 0.050888665
000060 08 db 20 be 40 e6 f4 3d 49 be ed bc 59 89 85 bd
       -0.15708554 0.11957979 -0.0290214 -0.065203376
000070 71 bb 2e 3e 60 52 8c bd ff 26 3e 3d 1a fe 28 3e
       0.1706369 -0.06851649 0.04642391 0.16503182

conv2.weight f4 [64, 32, 5, 5]
000000 1b 3c 45 3c 25 a7 44 ba 31 fa 84 bc d7 96 45 3c
       0.012038256 -0.0007501713 -0.016232582 0.012059889
000010 73 73 1f bd fe 84 fe 3b f3 cd 00 3c 81 ce e1 3c
       -0.03892846 0.0077673187 0.007861602 0.027564289
000020 b2 42 55 3d 1f ab 45 bc 74 3c a5 3b ea 7f f0 ba
       0.05206556 -0.012064724 0.005042607 -0.0018348668
000030 d2 85 85 3c d4 f1 6a 3d 49 07 2c bc 80 1d d7 bc
       0.016299162 0.05735953 -0.010499784 -0.026259184
000040 52 57 72 bc c9 f0 11 3d 45 7d 61 3d d2 ed 2e bd
       -0.014791327 0.03563002 0.055051107 -0.042707272
000050 1e 36 99 bc 61 3e 72 3b 39 b4 a4 3c 97 5c b1 3c
       -0.018702563 0.003696345 0.020105468 0.021650596
000060 4b ab 0d bc 9b 70 96 3b d9 85 e6 bc ce d2 90 3c
       -0.008646796 0.0045910603 -0.028139995 0.017678645
000070 43 bf 32 3d e1 4e d2 bc 08 ad 1a bc 3e 98 c1 ba
       0.043639433 -0.025672378 -0.009440668 -0.0014770103
000080 f2 42 b9 bb 07 55 07 3d 78 39 91 bc 89 21 56 bd
       -0.0056537325 0.033040073 -0.017727599 -0.052278075
000090 15 32 e3 bc 66 ba eb 3c b0 f0 9e 3c 32 4a 3a bd
       -0.027733842 0.028775405 0.019401878 -0.045480914
0000a0 83 78 dc bc 69 bf fe bb 95 07 d2 3c e8 96 16 bd
       -0.026912933 -0.0077742827 0.025638381 -0.03676501
0000b0 aa 1b ed bc 8a b6 50 bd 5e 48 2e bb 9b 49 ea 3c
       -0.028943855 -0.050955333 -0.0026593427 0.028599551
0000c0 5c a7 48 bd a2 32 80 bc 2e 41 9d 3c 1b fd b3 bb
       -0.04898773 -0.015649144 0.01919612 -0.005492819
0000d0 83 ca ca bc 93 7c f1 3b 53 86 d0 ba 3d fa d3 3c
       -0.024754768 0.0073695867 -0.0015909172 0.025876159
0000e0 70 5d bd 3c 71 56 00 bd 2c 74 88 bc ae 0f 86 bc
       0.023115844 -0.031332437 -0.016656958 -0.016364899
0000f0 e3 4e d9 3b b9 6a 43 bd f0 5e 19 bd 16 23 32 bc
       0.0066317185 -0.0477092 -0.037444055 -0.010872623
000100 6f e6 0d 3c a7 79 cd bc e7 be 0e bc d4 a1 b1 3c
       0.008660897 -0.025082422 -0.008712507 0.021683611
000110 28 bc f9 3c a5 aa d3 3b 46 34 aa 3c 29 fb db 3c
       0.030485228 0.0064595514 0.020776879 0.026853161
000120 a2 23 89 3c 6c 63 16 3d ae 7b 84 bc 65 44 17 bc
       0.016740624 0.03671591 -0.016172256 -0.009232615
000130 dc ab 65 bc 40 31 38 bc 6e 02 b2 3c cd f1 23 bd
       -0.014018025 -0.011242211 0.021729674 -0.04002552
000140 65 68 a0 bc 97 23 fa 3c 99 5e 49 3d 68 7f 6c bc
       -0.01958103 0.030534549 0.04916248 -0.014434673
000150 af 37 22 bd 0b 76 b5 3b 51 3d cc 3b 8d a8 82 3d
       -0.039603885 0.0055377535 0.0062328954 0.06379805
000160 0f 21 3e bc 8f a2 04 bc 8c c7 6d bc 46 c1 80 ba
       -0.0116045615 -0.008095398 -0.014512908 -0.0009823225
000170 92 49 40 3c 57 bd d9 bc 9a b4 c2 bc df cb 01 bd
       0.0117362905 -0.026579542 -0.023767758 -0.031688567
000180 f7 57 51 3c 57 0b 96 3c 1e 89 00 bc 4b b7 2a bd
       0.01277732 0.018315954 -0.007845191 -0.041678708
000190 77 d8 78 3c a7 84 09 bd 6f 1d d4 3c 90 ac 04 3d
       0.015188328 -0.033573773 0.025892941 0.03239113
0001a0 fd 2d 86 3c 4d 7c 00 3c 0a 58 19 bd 0a f4 6c 3c
       0.01637935 0.007842136 -0.037437476 0.01446248
0001b0 bc f2 91 3c 5b a9 7f 3c 1d 96 94 3b a9 08 75 bc
       0.01781594 0.015604342 0.0045344965 -0.014955678
0001c0 64 21 35 bd 4d 32 de 3b 27 86 1f 3d 0a 0a 18 bd
       -0.044221297 0.0067808987 0.038946297 -0.03711895
0001d0 a4 d2 75 3b 82 c2 2d ba b0 77 00 3d 09 7a f5 3b
       0.0037509585 -0.000662841 0.031364143 0.0074913544
0001e0 8d 95 57 bc 2f bb 58 3c f2 cc 8e bc 78 58 87 3c
       -0.013158214 0.013228222 -0.01743171 0.016521677
0001f0 d3 c4 68 3d fa c3 11 3b ef fb 37 3c 2b a1 5d bc
       0.05682833 0.0022242055 0.011229499 -0.013527195
000200 e0 ab 11 bd ef 66 fe 3c bf 04 a4 bc fd 7f 36 bb
       -0.035564303 0.031054942 -0.020021794 -0.0027847283
000210 c4 a2 11 3d 0a 31 6d bb d7 13 8e 3c 17 cb f4 3b
       0.035555616 -0.003619256 0.017343445 0.0074704993
000220 08 21 85 39 a2 09 59 bc 91 f3 24 3c d9 28 b3 3c
       0.00025392347 -0.013246926 0.010067836 0.021870064
000230 82 57 bb bb 69 74 ef 3c ed 2b 96 3c eb cd a3 3c
       -0.005717219 0.029230313 0.018331492 0.01999565
000240 0b c9 8a 3c 96 a0 b2 3a 8c c1 43 bc 3b 89 24 bb
       0.016941568 0.0013628181 -0.011948001 -0.002510621
000250 5f a7 13 3d 11 c9 8a 3c b6 b9 b1 bc 2e b2 3a 3c
       0.03604829 0.016941579 -0.021695 0.01139502
000260 06 ad 24 3c 58 86 30 3d 03 7c 95 3c a8 16 e4 3b
       0.010051018 0.04309687 0.01824761 0.0069607086
000270 5c b9 38 3c 50 e8 e1 bc 23 1d 2f 3d 10 fb 4d 3d
       0.011274662 -0.027576596 0.042752396 0.05028826
000280 71 91 07 bc 33 0b 4d bd 41 c5 6b bd 1c ba 3c bb
       -0.008274422 -0.05005951 -0.057561163 -0.0028797453
000290 e0 3c 28 3d 0a 65 9a bc fa eb 59 bd d9 d1 60 bd
       0.04107368 -0.018847007 -0.05320356 -0.054887626
0002a0 49 e4 39 bc 92 11 66 3d 74 11 e2 3b 14 b4 fa bb
       -0.011345931 0.0561691 0.006899053 -0.0076508615
0002b0 7b b8 58 3c fe dc ba bc 27 ed 66 3c f3 a2 02 bd
       0.013227577 -0.022810455 0.014094627 -0.03189368
0002c0 9d f4 4d 3c 7d 06 73 3c 7f 2e d7 3c ec d9 16 bd
       0.012570527 0.01483309 0.026267288 -0.03682892
0002d0 85 25 11 bd 06 cc 59 3c 02 9d 9d 3c 7d 05 b0 bc
       -0.035436172 0.013293272 0.019239906 -0.021486992
0002e0 72 3a f0 bc 26 6b 28 3d 96 58 23 3d 2e 5f 97 3c
       -0.029324744 0.04111781 0.039879404 0.018478002
0002f0 b5 2d 0f bd 6c 81 6f bd ed 20 0c 3d eb a8 0f 3b
       -0.0349557 -0.058473036 0.034211088 0.0021920751
000300 5a 01 bf 3c b3 ff f2 bc db fb 94 bc 17 4d 94 3c
       0.023316074 -0.029662943 -0.0181865 0.018103166
000310 b4 04 6d bc da a1 8c 3c 86 99 6e bd 95 b4 e4 bc
       -0.014466453 0.01716702 -0.05825188 -0.02791814
000320 41 6e 9c 3c 49 62 6b 3c fc 19 28 bd ba 5b 46 bd
       0.019095542 0.014366695 -0.041040406 -0.04842732
000330 ca 3a af ba d4 48 0f 3d e5 85 58 3c 45 e5 23 bd
       -0.0013368961 0.034981564 0.013215517 -0.04001357
000340 ee bc 49 bd fe f1 22 3c 6c 03 08 3d 99 dc 5b bc
       -0.049252443 0.009945391 0.03320639 -0.013419294
000350 a8 34 47 bd 34 a0 43 bc ac 92 d6 3c 95 75 dc 3b
       -0.0486342 -0.011940051 0.026192985 0.006727884
000360 b8 28 45 bd a3 06 09 bd 3f ad a7 bc dd 0c f9 3c
       -0.048134536 -0.033453595 -0.020468352 0.030401642
000370 67 03 fa 3c 4b a6 a7 3b 6a d5 8e 3c a5 e7 3b 3c
       0.0305192 0.005116259 0.017435748 0.011468803
000380 f3 cc db 3b 82 d0 92 3c 0e 80 f2 3c 52 ce f0 3c
       0.0067077815 0.01792169 0.029602077 0.029395256
000390 59 3e cb 3c 0e d0 cf bc 2a 9c 0f 3c af 97 42 bc
       0.024810003 -0.025367763 0.00876526 -0.0118769845
0003a0 78 e1 e4 3c 53 a1 9a 3b 11 c0 0c bc 3b c0 2e bd
       0.027939543 0.0047189384 -0.008590714 -0.042663794
0003b0 1e 21 5b 3c d7 e5 8b bc 8a 7f f3 3c 38 e8 55 bd
       0.013374595 -0.01707737 0.029723901 -0.052223414
0003c0 cf 73 87 bc 1a ef 02 bd a1 38 a9 3c 1f 61 08 3b
       -0.016534714 -0.031966306 0.020656886 0.0020809842
0003d0 5e 54 ff 3b 03 18 46 3c b9 80 35 3d 8f 6f 48 3d
       0.00779204 0.012090686 0.044312213 0.048934516
0003e0 58 84 72 3c b9 d9 5c 3c 95 95 22 3c bb 2c 2f bd
       0.014802061 0.0134796435 0.009923358 -0.042767268
0003f0 66 a1 51 3b ea 28 a2 3c b2 db 15 bd b5 36 9e 3c
       0.003198707 0.0197949 -0.03658647 0.019313196

conv2.bias f4 [64]
000000 ac 63 ca bc 3d 92 c3 3b 70 71 66 bb 62 81 82 3c
       -0.02470573 0.0059683607 -0.003516283 0.015930835
000010 2c ed 24 bb 42 3d 13 bc a4 02 cb 3c d7 6c 0b 3d
       -0.002516578 -0.008986773 0.024781533 0.034039345
000020 b3 48 f4 3c 98 df d5 bb 20 44 be 3c a2 c0 2b bc
       0.029819822 -0.0065268986 0.023225844 -0.010482939
000030 eb 77 8c bc 2a 5b ea 3c 71 2b 73 bc a9 c0 5a 3b
       -0.017147025 0.028607924 -0.0148419 0.0033378995
000040 30 ca 6a bc d3 08 1a 3c fd da 46 bc f2 17 85 3c
       -0.014330432 0.009401518 -0.012137172 0.01624677
000050 06 ba 1a 3d f6 e5 e7 3c 66 1b 07 3c 4c eb cd 3c
       0.037775062 0.028307896 0.008246278 0.025136612
000060 54 39 72 bc 0e 1b 11 bd 1e a4 98 bc d6 61 33 bc
       -0.014784176 -0.035426192 -0.018632945 -0.010948619
000070 f3 ad ad bb 91 0f c4 ba 7c 31 20 3d 27 f1 57 bc
       -0.0053002774 -0.0014958252 0.039109692 -0.013180054
000080 88 f6 24 bc a8 3f 61 bc 2e 29 12 3c 22 82 ba bc
       -0.010068543 -0.013748087 0.008920951 -0.02276713
000090 76 10 fb bb 0c 54 44 3c 89 5c 82 3c d1 d6 83 bc
       -0.0076618744 0.011982929 0.015913265 -0.016093643
0000a0 9f 72 9b 3b 37 1b ab 3b 74 00 27 3d ea ac 02 3c
       0.0047438885 0.00522175 0.040771917 0.007975796
0000b0 5e 9c 90 39 27 74 9c b9 36 16 19 bb 90 a3 74 3c
       0.00027582323 -0.0002984118 -0.0023359186 0.014931574
0000c0 7d 7a a9 3c 50 5c 83 bc bd f0 6d 3d 76 fe eb bb
       0.02068829 -0.016035229 0.058090914 -0.007201965
0000d0 09 89 16 bc 2f 83 9e bc af 86 80 bc 7a 7d 17 bc
       -0.009187945 -0.019349663 -0.015689222 -0.009246225
0000e0 6d eb 95 bb a6 73 c1 3a fc 00 cb bc 3a 0e ec 3b
       -0.004575184 0.0014759197 -0.024780743 0.0072038444
0000f0 93 62 46 bc 0a c9 2d bd 2b ef 73 3c 8a 6d 5d 3c
       -0.012108463 -0.042428054 0.014888565 0.013514886

fc1.weight f4 [128, 1024]
000000 3f a2 05 bc b9 82 7e 3c 8d 3c 3b bd 69 d0 7d bc
       -0.008156358 0.015534096 -0.045712043 -0.015491583
000010 d3 68 c9 3c 6a c1 1f 3a ec 11 ba 3c 22 03 c5 3c
       0.024586117 0.00060941896 0.022713624 0.024049345
000020 cd 57 a3 3c cf d5 8f bc 5e c7 19 3c d9 e9 66 3d
       0.019939328 -0.017558007 0.009385912 0.05637536
000030 a5 b9 ad bc 0b b9 d0 3b 16 31 fb ba 86 de 53 bc
       -0.021206686 0.006369715 -0.0019164409 -0.012931472
000040 f8 4b fe bc 80 52 78 3c 8a 0b 43 bd 3a 64 b2 3b
       -0.031042084 0.015156388 -0.047618426 0.005444077
000050 1d a3 55 3c 0c 91 ac bc c7 46 8c 3c d7 59 38 3c
       0.0130393775 -0.021065257 0.017123593 0.011251888
000060 ec 6c 0b bc 85 70 f2 bc f6 99 61 3d f3 b2 4c 3d
       -0.008509856 -0.02959467 0.05507847 0.049975347
000070 66 9f 89 3c 44 d5 e5 3c ef be 4c 3c 6e e5 99 bc
       0.01679964 0.028055795 0.012496694 -0.018786158
000080 d6 4e 12 3a 7f d4 fd ba 92 87 b9 39 06 ac ca 3a
       0.00055812055 -0.0019365697 0.00035386957 0.0015462644
000090 8e 45 40 ba 28 5c c0 3a be 88 8f 3a ce e8 ed 38
       -0.0007334583 0.0014675902 0.0010950787 0.00011344404
0000a0 2a 83 16 b8 be 4e 52 ba 71 43 82 3b fa 58 6c ba
       -3.5884943e-05 -0.0008022598 0.003975325 -0.0009015944
0000b0 03 5f 57 ba 92 9f 37 ba b9 29 2d ba e4 20 dd b8
       -0.0008215757 -0.0007004674 -0.00066056434 -0.000105442276
0000c0 c1 c7 c4 bc df 3d a3 3b aa a9 02 3c 66 14 dc 37
       -0.024021031 0.004981741 0.007975021 2.6235542e-05
0000d0 8c e7 d0 3c 1d 4b c8 3c 2c bf dd 3c 88 4f 84 bc
       0.025501035 0.02444988 0.027068697 -0.016151205
0000e0 0c 2e d0 3c ef 61 2e 3d 35 88 35 3c f1 d4 bf 3c
       0.025412582 0.042573866 0.011079838 0.023416968
0000f0 aa 6c e4 bc de 75 e0 bc 1a b3 73 bc 27 60 57 3c
       -0.027883846 -0.027399953 -0.014874244 0.013145483
000100 58 f0 4a bc b4 ae 9f bc 2e 95 b1 3c 95 89 7d 3b
       -0.012386404 -0.019492485 0.02167758 0.0038686742
000110 99 74 90 bb 6d 07 18 bc 59 45 5b 3c 4a e0 de 3a
       -0.004408431 -0.009279114 0.013383233 0.0017004099
000120 d9 c7 e7 3c 98 17 d1 3b 63 99 5d bc 49 9a de 3c
       0.028293537 0.0063809864 -0.01352534 0.027173178
000130 a5 8b 10 bb 15 2a f2 3a 1c 1f a2 bc d0 c4 e0 3c
       -0.002205589 0.0018475676 -0.019790225 0.027437598
000140 12 3e 6b 3c df 97 d1 3b c6 c8 29 bd 75 2a 45 3c
       0.01435806 0.0063962783 -0.041451238 0.012034048
000150 ed ae 9c 3c 72 71 43 3c d5 df 5f bc 6f 38 16 3d
       0.01912638 0.011928903 -0.013664206 0.036674913
000160 80 0b 06 3c 60 d1 26 3d c0 41 bb 3c 03 2d a7 3c
       0.008181453 0.04072702 0.0228585 0.020407205
000170 40 05 9d bc 17 21 6d 3b a1 7f 22 3c 03 88 87 3b
       -0.019167542 0.0036183053 0.009918124 0.004136087
000180 e0 9e 0a ba 17 eb 24 3d 5d a9 f0 bc 2b 58 38 bc
       -0.00052879564 0.04026326 -0.029377634 -0.01125149
000190 b8 1b 1a 3c 42 5c ad bc 77 90 cd bc 33 42 37 bc
       0.009406023 -0.021162156 -0.0250933 -0.011185217
0001a0 8d ff e2 3b f7 41 67 bc cc c5 6d 3d f4 79 e6 3c
       0.0069274367 -0.014114848 0.058049962 0.028134324
0001b0 bc cf f2 bc 68 89 1c 3d b2 21 2d bc 5e a4 a7 bc
       -0.029640071 0.03821698 -0.010567116 -0.020464119
0001c0 1a 9e 36 3c 04 81 c6 3c 98 cb 71 bd d5 30 7a 3b
       0.011146093 0.024231441 -0.059032053 0.0038176079
0001d0 4e 8b 29 3d d4 18 11 3c 33 8e 88 bb 9b 3d 25 3d
       0.041392617 0.008856017 -0.004167342 0.040341955
0001e0 6f cf d5 bc 72 6f b0 bc 01 75 4c 3d b5 d0 a2 3c
       -0.026099889 -0.021537516 0.04991627 0.01987491
0001f0 f7 bc 8d bc 7c c3 fe 3c 4c fa 87 bb 0b 5e 38 bd
       -0.01730202 0.031099074 -0.0041497108 -0.04501156
000200 66 7d b6 3c 0d 81 a6 3c e5 2d 56 bd e4 3b 0f 3d
       0.022276592 0.020325208 -0.052289862 0.034969226
000210 c1 94 39 3d 1c cf 4c 3c 93 41 ba bb c4 7f 90 3d
       0.04530788 0.012500551 -0.0056840866 0.07055619
000220 79 f4 ff 3a d1 16 71 bc e3 37 00 3c d7 23 7a 3c
       0.0019527815 -0.0147149125 0.007825824 0.015267334
000230 f4 f6 e5 3c 06 97 eb 3c e1 b8 07 bc 55 4b 0b bd
       0.028071858 0.028758537 -0.008283825 -0.03400739
000240 a2 b8 e3 bc 44 9e 84 bc d4 4c 0c 3d 0d 5e bf ba
       -0.027798 -0.016188748 0.034252957 -0.0014600173
000250 f1 65 f6 bb 2b bc 58 bd f8 0c 0e bd 8e c3 95 bc
       -0.0075194766 -0.052913826 -0.034680337 -0.018281724
000260 2c a0 6b bc 0d 62 42 bc 9d 95 20 bd 10 fd ea 3c
       -0.01438145 -0.011864197 -0.039205182 0.028685123
000270 50 5d 14 bc 44 2b 12 3d a3 6b 8c bc 94 10 02 3d
       -0.009055451 0.035685793 -0.017141169 0.03175409
000280 cf 0b 44 3c e4 bf 8e bc 68 27 33 bd eb 6f 87 3c
       0.011965706 -0.017425485 -0.043738753 0.016532859
000290 db 4e 25 3c 3a 2b cb bc a3 1e 00 3d 00 d9 66 3c
       0.010089601 -0.024800885 0.031279217 0.014089823
0002a0 c8 d7 23 bd ec 32 ba 3b 60 e5 4c bb 6e 5c 42 3c
       -0.040000707 0.00568234 -0.0031264648 0.011862857
0002b0 9d 49 1d 3d 83 90 47 3c c3 08 54 3c b1 a7 18 3c
       0.03840028 0.01218045 0.012941542 0.0093173245
0002c0 b5 7d f3 3c d5 e5 0d bd bb ab aa 3c 22 46 7d bc
       0.029723028 -0.034643013 0.02083384 -0.0154586155
0002d0 fc f7 03 bd 67 8d 83 3c 1d 10 a4 bc fd 2e e7 3a
       -0.03221892 0.016058637 -0.020027215 0.0017637905
0002e0 06 62 a4 3b a3 c0 86 3c 44 7d c5 3b ad d6 f9 bb
       0.005016568 0.016449278 0.0060268957 -0.0076244683
0002f0 79 13 97 3c 28 23 7b 3c 4c 74 0e 3d 79 58 c1 bc
       0.018441902 0.015328206 0.034778878 -0.023601757
000300 df c0 70 bc 22 f7 8d bc 3a 29 ea bc fe 44 ab bc
       -0.014694422 -0.017329756 -0.028584111 -0.020906921
000310 7f ad 65 bc f8 f2 c5 3b a2 24 d4 3c 21 65 78 bd
       -0.0140184155 0.006040927 0.025896374 -0.06064332
000320 df 26 e1 bb 96 42 0e bc 68 92 0e bd 2e 01 1e bc
       -0.006871089 -0.0086828675 -0.034807593 -0.009643836
000330 98 b6 dc 3b 44 cd da bc 8e 32 f7 3c 78 33 73 3c
       0.006735634 -0.026709206 0.030175474 0.014843814
000340 c6 88 a6 3c 3a 48 52 bd 8a 7d 12 3d 93 82 7b bc
       0.02032889 -0.051338412 0.035764255 -0.015350956
000350 5e 09 0d 3d ea 82 42 ba 4f 7e fb 3c 23 99 ad bc
       0.03443276 -0.00074200204 0.030699877 -0.021191185
000360 82 7c e4 3b ae 9e 26 3d 8a 61 39 bc d1 16 0a 3c
       0.0069728503 0.040678672 -0.011314759 0.008428291
000370 b8 de f8 3c 07 c1 42 3d 16 96 c2 3b 4f 53 21 3c
       0.030379638 0.047547366 0.005938302 0.0098465225
000380 d6 ff 32 3c 3c 18 01 3b 5f 2e 6f bc cd 1b b4 3b
       0.010925254 0.0019698283 -0.014598458 0.005496478
000390 69 7d 90 bc 83 fb a2 bc 18 3f 0e bd 20 19 40 bd
       -0.017637925 -0.01989532 -0.03472814 -0.04689896
0003a0 4b d8 a8 3c 28 af 96 bc c2 5d 10 bd 1c ce 89 3c
       0.020610949 -0.018394068 -0.035245664 0.016821913
0003b0 0c d7 bb 3a 09 ed b1 3c d4 13 29 3d 72 d4 d2 3b
       0.0014331057 0.021719472 0.041278675 0.006434017
0003c0 be 02 f0 3c 04 d9 1c 3d 91 a6 94 bc e3 26 0d bd
       0.029298183 0.0382929 -0.018145831 -0.034460913
0003d0 d7 91 b9 bc ba e1 55 bc af ca e8 bc 4e a4 95 bc
       -0.02265255 -0.013054306 -0.02841696 -0.018266823
0003e0 16 39 91 bc bd f5 c2 bc 35 ce 7e bc 41 4f 9b 3c
       -0.017727416 -0.023798818 -0.015552093 0.01895869
0003f0 46 04 14 bc 67 0a 09 bc b9 d7 07 3d d6 d1 c0 3c
       -0.009034222 -0.0083642965 0.033164714 0.023537558

fc1.bias f4 [128]
000000 b7 5c 49 3c e0 70 10 bc bb 5d 00 bc 74 75 e0 bc
       0.012290171 -0.008815974 -0.007834847 -0.027399756
000010 c9 8e 15 bc 6c 20 c7 3c 9b 62 7b bc fa 65 c1 bc
       -0.009128281 0.024307452 -0.015343334 -0.023608197
000020 f0 9e 0d 3c b3 63 bf 3a 55 a3 84 3c ca 0e ca bc
       0.008643851 0.0014601856 0.016191164 -0.024665255
000030 4a a6 6d 3c 2e 7b b3 3b 7a d0 67 39 a2 17 e3 ba
       0.014504978 0.0054773306 0.0002210754 -0.0017325769
000040 2a 2a 72 bc 35 a8 a7 3b e2 7c 99 bc 88 af 50 3c
       -0.0147805605 0.0051164874 -0.018736307 0.012737162
000050 28 8b f9 3c 2b 2b a6 bc b3 7e 59 bb 23 d3 ef bb
       0.030461863 -0.020284256 -0.003318709 -0.0073188706
000060 4e 31 93 3c f6 8f 74 bb 6b f4 80 3c 58 4b e7 3c
       0.017967846 -0.0037317253 0.015741548 0.028234169
000070 1b 6c a0 3c 88 a4 c0 3b 7c b6 27 bb 95 02 5a 3b
       0.019582799 0.0058789887 -0.0025590947 0.00332657
000080 64 a0 91 3c d1 83 11 3b c9 86 e5 3c d1 38 dd 3c
       0.017776676 0.0022203813 0.028018372 0.027004631
000090 39 82 d4 3b ef 28 9b bc 5a b7 a2 bc 71 fb fc 3c
       0.0064852503 -0.018940417 -0.01986282 0.030881615
0000a0 97 2d 03 3a 5d 33 9a 3c e1 d4 93 3c 74 ba 67 3a
       0.0005004047 0.01882332 0.018045845 0.00088397344
0000b0 9d fa e0 bb 17 a3 86 bc 88 42 29 3c da c8 91 bc
       -0.006865813 -0.01643519 0.010330804 -0.017795969
0000c0 9f f2 b3 3c 36 65 9c bb be 26 a0 3c 9d 8c 19 bc
       0.021966277 -0.0047728075 0.019549724 -0.009371904
0000d0 7f e2 24 3c 1a cf 8e 3c 06 08 87 bc 25 da da bc
       0.0100637665 0.017432738 -0.016483318 -0.026715348
0000e0 34 57 e9 3c 39 32 a2 3c a1 6f c8 3c 0a 67 21 3c
       0.028483965 0.019799339 0.024467291 0.009851227
0000f0 e2 bb 61 bb 71 de 73 bc 5c 77 92 bc 33 af 8c 3c
       -0.0034444262 -0.014884577 -0.01787918 0.017173385
000100 2d 3e 7d 3c 08 e2 f2 bb 5f 7e 97 3b 28 5b bc 3c
       0.015456718 -0.007412199 0.004623219 0.022992685
000110 97 67 4b 3c d2 bf 4b 3c f1 95 4b 3b 53 6d 2b 3c
       0.012414834 0.01243587 0.0031064714 0.010463077
000120 6f 4b 9d bc 99 a0 67 3c 34 4d 2d bc 74 e5 a6 3b
       -0.019201009 0.014137411 -0.010577489 0.005093271
000130 3b 9c bc 3c 78 0c a6 3b 5d 69 5f bc c9 a5 87 bc
       0.023023715 0.0050674044 -0.01363596 -0.016558545
000140 1d 23 b6 bc df ab 07 3b 70 21 d6 3b 16 47 ae bc
       -0.02223354 0.0020701808 0.006534748 -0.02127413
000150 71 42 10 3c 01 da b7 ba 85 52 45 bc 15 90 29 bc
       0.008804903 -0.0014026762 -0.0120436 -0.010349293
000160 c6 0b 55 bc 38 1a 18 bc 9f fe 19 bc 70 e3 42 3c
       -0.013003295 -0.009283595 -0.009399085 0.011895046
000170 34 db 48 3b 78 c7 22 bc ab e4 ad 3c fd 95 88 3b
       0.0030648233 -0.009935252 0.021227201 0.0041682706
000180 ab e2 b9 bc 5d 34 0b 3d c5 9c ae 3c a3 d7 e4 3a
       -0.022691092 0.033985484 0.021314988 0.0017459284
000190 60 ea bf 3c af 7d 00 bc a1 db 98 bc d4 f3 cb bb
       0.023427188 -0.007842465 -0.018659415 -0.006224135
0001a0 60 b7 c2 bc 9e 0e e1 bb 81 39 83 bc 7c bd 26 bc
       -0.02376908 -0.0068681976 -0.016018631 -0.0101770125
0001b0 9e 73 0a 3c 4a 4d ff 3c 6b 65 1c bb 87 2b c4 3c
       0.008450417 0.031164784 -0.002386416 0.023946537
0001c0 d1 ee c9 bc 4d ec a4 bc 8d 08 39 3c 62 f9 63 bc
       -0.02465001 -0.020132208 0.011293543 -0.013914438
0001d0 e3 30 85 bc da 12 55 ba 90 da 47 3c aa d1 58 ba
       -0.016258663 -0.0008128114 0.012198105 -0.00082709885
0001e0 d4 1d 09 bc 15 77 b9 3c 52 d8 05 bb c7 cf 0b 38
       -0.008368928 0.02263979 -0.0020423126 3.333369e-05
0001f0 b4 78 89 bb 95 f2 4e 3c e0 fa 86 3c 08 05 4b bb
       -0.004195297 0.012631078 0.016477048 -0.003097834

fc2.weight f4 [10, 128]
000000 bf d9 a2 3d d4 d6 72 bc e4 4c e9 3c 3a 22 4e bd
       0.07951688 -0.014821727 0.028479047 -0.05032561
000010 85 29 7e 3d 82 cb 92 bd 6a a5 ce 3d 69 cc 4b bd
       0.062051315 -0.07167722 0.10090144 -0.049755488
000020 66 f4 e4 bc 04 aa d1 3c 78 c3 2f 3d 80 7c 45 bd
       -0.02794857 0.025593765 0.042911023 -0.048214436
000030 ba f4 22 3d 1a 1f 9a 3d 14 3d 89 bb 38 94 13 bd
       0.03978417 0.075254634 -0.0041881893 -0.036030024
000040 86 06 50 3d 11 67 a0 bd 6e 64 16 bc 33 05 1d 3c
       0.05078747 -0.07832158 -0.009179218 0.009583759
000050 30 c2 15 3d 4e f0 d4 bd c4 de 88 3d 01 36 24 3d
       0.036562145 -0.10397397 0.06683114 0.040090565
000060 a3 69 36 3d 7b 2f 7a 3d 46 04 b0 3d da f4 b8 bd
       0.044534337 0.061080437 0.08594565 -0.09031077
000070 35 ef b3 bd 69 1e 56 3d 54 5b 71 3d 58 6f 81 3d
       -0.087858595 0.052275095 0.058924988 0.06320065
000080 c5 18 28 bd fb b7 12 bd 07 ab 00 be 3a 24 d6 bd
       -0.041039247 -0.03581999 -0.12565242 -0.104561284
000090 dd c4 9e bd 76 0c a8 bd e3 71 86 3d 5a bb 95 bc
       -0.077523924 -0.08205502 0.06564691 -0.018277813
0000a0 07 d7 bc bc 52 a4 c1 3c 93 9d 01 be 5d 9d e7 bb
       -0.023051752 0.023637924 -0.12657766 -0.0070683197
0000b0 08 0e a8 3d 98 d6 9d 3d 47 73 33 bc fb ea 4c 3d
       0.08205801 0.07706946 -0.010952777 0.050028782
0000c0 9c 17 e9 bd 3a dd ed bc b6 91 48 bd 2d 41 63 bd
       -0.11381456 -0.029036153 -0.048967086 -0.05548208
0000d0 ab ce d5 bc 6d 95 bb 3d 3a 49 a3 3d 24 a9 97 3d
       -0.026099524 0.0915936 0.07972951 0.07405308
0000e0 dd 37 d6 bd e6 fe 90 bd f4 be dd bd 70 98 10 bc
       -0.10459874 -0.07079868 -0.10827437 -0.008825406
0000f0 77 d1 85 bc 54 e3 50 3d 63 68 b3 3c b0 a0 e9 bd
       -0.016335232 0.050998047 0.021900361 -0.11407602
000100 52 48 95 bc c1 38 44 3d 6f df 49 bc 3a 91 93 3d
       -0.018222962 0.047905687 -0.012321337 0.07205434
000110 ac da 9d 3d f5 9e 1b 3d 6f 4b f8 3c fc 18 ad bd
       0.07707724 0.03799339 0.030309407 -0.08452031
000120 9c ea 32 bd b9 1a e4 3c 29 46 4a 3d 94 c0 12 bd
       -0.043680772 0.027844774 0.049383316 -0.035828188
000130 1b 8c a8 3d 49 f6 f5 bb ab b4 35 bb af 96 21 bc
       0.08229848 -0.007506166 -0.0027726095 -0.009862586
000140 04 b6 9d bd 86 4b 62 3d 39 bc 90 bd e8 b9 93 3d
       -0.07700732 0.055247806 -0.070671506 0.07213193
000150 71 1a 5e bd 2e 7e 86 bd b2 ca bd bc 89 c0 3e 3c
       -0.054224435 -0.065670356 -0.023167942 0.011642584
000160 91 66 96 3b 14 36 b9 bd 66 42 8a bd 97 8c 67 bd
       0.0045898636 -0.09043518 -0.06750946 -0.05653056
000170 04 98 cd bc 60 ae b7 3d 36 c9 cd bd c5 6f c7 bd
       -0.0250969 0.08968806 -0.100481436 -0.09738115
000180 2d 2a b7 3d e7 f8 fc 3c a1 3e e7 bd a9 c6 0a 3c
       0.08943591 0.030880405 -0.112912424 0.008470216
000190 b1 b4 9e 3d 8e 66 97 b7 92 3e 09 3d 63 54 4e bd
       0.07749308 -1.8048358e-05 0.033506937 -0.050373446
0001a0 fd a7 06 3d a2 f3 8b bd ce 7a 91 3d c6 23 84 bd
       0.03287505 -0.06833579 0.07103501 -0.06452136
0001b0 4e 1e 4b bd ce 09 c0 bd ec 89 a7 3c 66 2b d8 bd
       -0.049589448 -0.0937687 0.020451508 -0.105551526
0001c0 ff 98 b7 bd b0 0b 4c 3d 4d fd 77 bd 24 c4 fc bd
       -0.089647286 0.049815834 -0.0605443 -0.12342098
0001d0 37 91 82 3d 29 ab e9 b8 61 9d 13 be c2 87 a5 bd
       0.06375354 -0.00011142187 -0.14415504 -0.080825344
0001e0 dc dc 4c bd e3 b5 c1 bd 97 7b 2e 3c b5 02 bb bd
       -0.050015315 -0.0945852 0.010649583 -0.09131376
0001f0 91 39 12 bb ff 21 4f bd e5 ca 96 bd 43 7f 8d 3d
       -0.0022312144 -0.05056953 -0.07362918 0.06909039
000200 1a 1f 7d bc fc 03 b6 3d d8 ae 07 3d 4e 85 6f bd
       -0.01544931 0.08887479 0.03312573 -0.05847674
000210 58 7e cb 3d 2f f4 8d 3d d0 72 8f 3d b9 71 65 bd
       0.099362075 0.0693134 0.070043206 -0.056016658
000220 1a 0a 33 bd 0b 13 4c bc 9c f3 09 bd 5b 31 ad bc
       -0.043710805 -0.012455712 -0.03367959 -0.021141699
000230 bf bb a3 bd 21 37 19 bd 31 39 1f 3c bd ec 83 bd
       -0.07994794 -0.03740609 0.009718225 -0.064416386
000240 2d a9 8a 3d 9e 92 f1 bc d0 26 cb 3c ac 95 b3 3c
       0.06770549 -0.029488858 0.02479878 0.021921955
000250 5d 22 6b 3d b0 2a c5 3d 53 df 6c 3d 7e 13 d7 bd
       0.05740582 0.096272826 0.057830166 -0.10501765
000260 2f 7f 6a bd 46 aa 5d 3c d8 e4 72 bd 04 d4 2b 3c
       -0.057250198 0.013529366 -0.059300274 0.01048756
000270 55 b8 9d 3d 53 7f ee bc ef 8b 94 bd a3 b8 f8 bd
       0.07701174 -0.029113447 -0.07253253 -0.12144592
000280 a4 e6 86 bc 27 3b 44 3d 44 cc af 3d ee 41 bd bd
       -0.0164674 0.047907975 0.085838825 -0.09241091
000290 9f 1e 77 bd 72 29 c3 bb ce cd 47 3d 47 61 a0 3d
       -0.060331937 -0.0059558684 0.048780255 0.07831054
0002a0 ce 1b 04 3c 47 16 b1 bd 4c b1 cc 3c 2e 01 c7 3d
       0.00806327 -0.08646827 0.024986885 0.09717022
0002b0 2c ac ff bd 97 d0 8f 3d f6 8f cb 3d c1 99 9e bd
       -0.12484011 0.07022207 0.09939568 -0.0774417
0002c0 7d df 9b 3d 5e 68 cb bd 4f 2c 6a 3d 22 56 51 3d
       0.076109864 -0.09932016 0.057171162 0.051107533
0002d0 fa fa 39 bc 84 05 55 bc cd 55 1b bb 8b 81 dd bd
       -0.011351341 -0.013001803 -0.0023702264 -0.10815724
0002e0 ea 95 ca 3d 0d 3a 16 3d da a2 94 3d 83 15 8f bd
       0.09891875 0.036676455 0.07257624 -0.06986525
0002f0 71 ca 1d bd 13 fa bc bd 51 8e fe bb 7e ef d5 3d
       -0.03852314 -0.09227385 -0.0077684303 0.1044607
000300 7c 04 18 bd d1 48 8a 3d 70 ca b6 3c 3e 5b 54 bc
       -0.03711365 0.0675217 0.022313327 -0.012961207
000310 fe aa 1c 3d f6 b4 0e 3d 24 e0 bb bd 43 28 93 3d
       0.03824901 0.034840547 -0.09173611 0.07185414
000320 7e 26 09 be 18 a2 fa bb ef aa 46 bd e6 3a ed bc
       -0.1339359 -0.0076487176 -0.04850286 -0.028958749
000330 c4 61 f9 bd e3 b2 8e bc 57 e7 e7 3d 37 e0 1e bc
       -0.121768504 -0.017419284 0.113234214 -0.009697012
000340 79 6c 95 bd 0d dc a9 3d a4 47 9c bd 20 aa 03 bd
       -0.0729608 0.082939245 -0.07630852 -0.032144666
000350 b4 fd 97 bd 8b 2b 89 3c b9 ab 81 bd 0f 3a 06 3d
       -0.07421437 0.016744396 -0.063315816 0.032770213
000360 45 0f 0e be 36 7d 50 3d 85 54 ab 3d 02 be c7 3d
       -0.13873012 0.05090066 0.0836573 0.09753038
000370 b1 9d d1 bc 04 ff d1 bc 7e 3d 69 bd c5 b9 04 bd
       -0.025587888 -0.025634296 -0.05694341 -0.032403726
000380 6d 27 fa bc c2 5c dc 3a c2 00 d0 bc fd 1c 2c bc
       -0.030536378 0.0016812312 -0.025390986 -0.010504958
000390 21 bd d3 3d a4 e5 4a 3d 15 e7 f5 bd ff c7 22 3d
       0.10338808 0.04953541 -0.12006966 0.039741512
0003a0 65 78 f0 bd ec 32 3d bd 83 e3 5a 3d 6d a1 14 3d
       -0.117417134 -0.04619114 0.05343963 0.03628676
0003b0 0a 50 12 3d 79 98 94 3b 56 63 af bd 54 1d 17 3c
       0.035720862 0.0045347777 -0.08563869 0.009223301
0003c0 03 fe 9a ba e1 68 17 bd 61 3b 6d bc 86 e8 d9 3d
       -0.0011824969 -0.036965255 -0.014479489 0.106400535
0003d0 b1 97 ad bd 9e fb 82 b9 f8 08 01 bd aa 8a a5 3d
       -0.084761985 -0.00024983002 -0.031502694 0.08083089
0003e0 eb d5 66 3b 29 29 8b bd db da 63 bd c8 d2 d6 3c
       0.003522272 -0.0679496 -0.05562864 0.026223555
0003f0 54 e6 1b bc 3b 3e a1 bd 58 10 52 3d 29 1c d5 bd
       -0.009515364 -0.07873198 0.051285118 -0.10405762

fc2.bias f4 [10]
000000 b0 7f a0 3d 4c e4 35 bd 2e a5 bc bc c7 96 90 3d
       0.078368545 -0.044407174 -0.023027983 0.070600085
000010 97 cd 94 bb bd c6 39 bd ad 5b 00 bd e7 fb fc 3c
       -0.00454111 -0.045355547 -0.03133743 0.030881835
000020 3b 91 82 bc 0e 58 1e 3c
       -0.015938392 0.009664549
